…
colab":{"base_uri":"https://localhost:8080/"},"executionInfo":{"elapsed":31,"status":"ok","timestamp":1671375880600,"user":{"displayName":"Wesley Purnomo","userId":"14823478138298484417"},"user_tz":-420},"id":"li_X2WYBHbkX","outputId":"ddeb4a69-f40d-47f5-c858-18bd1ebf9b71"},"outputs":[{"output_type":"stream","name":"stdout","text":["Model: \"sequential\"\n","_________________________________________________________________\n"," Layer (type)                Output Shape              Param #   \n","=================================================================\n"," conv2d (Conv2D)             (None, 254, 254, 16)      448       \n","                                                                 \n"," max_pooling2d (MaxPooling2D  (None, 127, 127, 16)     0         \n"," )                                                               \n","                                                                 \n"," conv2d_1 (Conv2D)           (None, 125, 125, 32)      4640      \n","                                                                 \n"," max_pooling2d_1 (MaxPooling  (None, 62, 62, 32)       0         \n"," 2D)                                                             \n","                                                                 \n"," conv2d_2 (Conv2D)           (None, 60, 60, 64)        18496     \n","                                                                 \n"," max_pooling2d_2 (MaxPooling  (None, 30, 30, 64)       0         \n"," 2D)                                                             \n","                                                                 \n"," conv2d_3 (Conv2D)           (None, 28, 28, 128)       73856     \n","                                                                 \n"," max_pooling2d_3 (MaxPooling  (None, 14, 14, 128)      0         \n"," 2D)                                                             \n","                                                                 \n"," conv2d_4 (Conv2D)           (None, 12, 12, 256)       295168    \n","                                                                 \n"," max_pooling2d_4 (MaxPooling  (None, 6, 6, 256)        0         \n"," 2D)                                                             \n","                                                                 \n"," flatten (Flatten)           (None, 9216)              0         \n","                                                                 \n"," dense (Dense)               (None, 512)               4719104   \n","                                                                 \n"," dropout (Dropout)           (None, 512)               0         \n","                                                                 \n"," dense_1 (Dense)             (None, 7)                 3591      \n","                                                                 \n","=================================================================\n","Total params: 5,115,303\n","Trainable params: 5,115,303\n","Non-trainable params: 0\n","_________________________________________________________________\n"]}],"source":["model.summary()"]},{"cell_type":"markdown","metadata":{"id":"GQBRJpu4HLZL"},"s
…
